checkpoints/best-model.pth (torch, 5222 bytes, 6 tensors)

layer_1.weight f4 [8, 70]
0.022690944 0.030707134 -0.02301345 0.033193927 -0.06286041 0.052794673 -0.08066995 0.065880135
0.033184536 -0.04144182 -0.04734522 -0.09191295 -0.11570053 -0.105190165 0.0035320015 -0.08942513
-0.09695853 -0.088865146 -0.10543113 0.0010739872 0.06743822 -0.06760697 0.10196438 0.03399373
0.11112996 -0.04193911 0.09460728 0.05009484 0.03698524 -0.033531114 0.015073888 -0.068889335
0.038362946 0.095893316 -0.05347688 0.024088489 -0.06174735 0.0074661914 0.085803 0.012804032
-0.008172944 0.097649366 -0.11770228 -0.0050418377 0.09815367 -0.10106666 0.09640097 0.01252596
0.10389341 0.08293293 0.1010573 0.049606286 0.10165014 0.057099897 -0.033366233 -0.09294081
0.08155762 0.09339594 0.06666548 0.06596394 0.042312656 -0.04366442 -0.0902541 -0.016084163
-0.0977678 -0.018962514 -0.0138434395 -0.11210707 -0.10576424 -0.0771678 -0.026831225 -0.10327177
-0.047790334 -0.09001938 0.07031514 -0.107322924 0.10480035 0.049919344 0.10214561 -0.088712454
0.06823184 -0.054433763 -0.10133469 0.073969625 -0.08757588 -0.011351785 0.021541813 0.10474164
0.08890145 0.09160621 0.10828407 -0.053165436 -0.001154378 -0.08749143 0.034903757 -0.08531806
-0.040195286 -0.03724107 -0.05687038 0.048439093 -0.11570218 -0.105895184 -0.07259269 -0.082843915
-0.056930922 -0.1001887 0.080973335 -0.04070157 -0.059581775 0.021597572 0.0011708427 0.0453743
0.053905778 -0.045402415 -0.06763659 0.04107187 -0.10049148 0.018341608 0.06338702 0.026465582
-0.045544736 -0.028273478 -0.07238064 -0.014745913 -0.11361605 0.09428165 0.061247148 -0.018497385
0.054738022 0.0071626594 0.008726917 0.038307372 -0.06162628 0.100188464 0.02419669 -0.012815013
0.070711315 0.043668125 -0.08544414 -0.049215432 0.0033003315 0.118184485 -0.05028423 -0.066348836
0.016094543 -0.115889095 0.06411717 -0.016642345 -0.060542863 0.019678198 0.052822195 -0.11810998
-0.018611906 -0.106403574 -0.100027725 -0.004708566 -0.07269573 0.08848042 0.009109803 -0.009083964
-0.05672556 -0.031613216 0.111769654 -0.005561702 -0.054172352 0.014705099 0.03958225 0.019902565
0.08016464 -0.07446172 0.05037947 0.024904273 -0.05318995 -0.0616096 0.086652264 0.07609107
0.07432797 -0.097933605 0.08963201 0.106832944 0.017142378 0.008512773 0.03855584 -0.05915681
-0.056396283 -0.11663826 -0.0889868 -0.006085226 0.009252854 0.017840348 -0.037523925 -0.009894989
-0.092317805 -0.010800235 0.03796912 0.10542514 0.043796647 0.038094617 -0.054107144 0.09922611
-0.027660584 -0.09451368 -0.081268616 -0.06938568 0.00052993745 0.02790975 -0.037538514 -0.10135435
0.050346076 -0.017042726 -0.038185276 0.096506305 0.11226595 -0.06380963 0.02891799 -0.096226156
-0.10815219 0.040594693 -0.0005332164 0.06503941 -0.09156238 0.011264093 -0.085630774 -0.0018656908
-0.033542752 -0.08580103 -0.08314226 -0.0075099766 -0.010357645 0.036179185 -0.042445548 0.086640395
0.055902116 -0.012709565 -0.07153695 0.077653594 -0.0034434868 -0.06430775 0.048314564 -0.014732127
0.051251218 0.050383218 0.0784431 0.01017915 -0.07804215 -0.003447435 0.06663294 0.05696615
0.0053523537 -0.10723383 0.021641655 0.0035218152 -0.028850675 -0.018689 -0.0067638783 0.08211975
00000000: 5ce2 b93c 878d fb3c b486 bcbc 5bf6 073d
00000010: f5bc 80bd 3a3f 583d 4936 a5bd 2aec 863d
00000020: 82ec 073d e6be 29bd 10ed 41bd db3c bcbd
00000030: 66f4 ecbd f16d d7bd 2779 673b 8624 b7bd
00000040: 3292 c6bd eefe b5bd 47ec d7bd 08c5 8c3a
00000050: 0d1d 8a3d 8675 8abd b3d2 d03d 023d 0b3d
00000060: 1b98 e33d 58c8 2bbd 76c1 c13d 3f30 4d3d
00000070: d67d 173d ec57 09bd 78f8 763c da15 8dbd
00000080: 7722 1d3d b763 c43d 930a 5bbd 3955 c53c
00000090: caea 7cbd f4a6 f43b 7cb9 af3d 01c8 513c
000000a0: d0e7 05bc 64fc c73d e50d f1bd 0036 a5bb
000000b0: cb04 c93d 09fc cebd df6d c53d af39 4d3c
000000c0: 11c6 d43d bdd8 a93d 21f7 ce3d f62f 4b3d
000000d0: f32d d03d 95e1 693d 08ab 08bd c057 bebd
000000e0: ae07 a73d 5f46 bf3d e987 883d 1a18 873d
000000f0: 0950 2d3d 76d9 32bd 24d7 b8bd efc2 83bc
00000100: 7c3a c8bd 4657 9bbc 98cf 62bc 6498 e5bd
00000110: ec9a d8bd 270a 9ebd 28cd dbbc 2680 d3bd
00000120: ccbf 43bd 155c b8bd 6201 903d 1fcc dbbd
00000130: 91a1 d63d 3a78 4c3d b831 d13d e0ae b5bd
00000140: 23bd 8b3d f0f5 5ebd 9088 cfbd 637d 973d
00000150: fc5a b3bd d6fc 39bc 7578 b03c c982 d63d
00000160: f711 b63d 099c bb3d 0ac4 dd3d 00c4 59bd
00000170: 804e 97ba b52e b3bd 3ef7 0e3d 3cbb aebd
00000180: d0a3 24bd 188a 18bd eaf0 68bd 1268 463d
00000190: 44f5 ecbd 93df d8bd 7aab 94bd 12aa a9bd
000001a0: 6630 69bd bc2f cdbd 59d5 a53d b1b6 26bd
000001b0: 050c 74bd 64ed b03c f676 993a 67da 393d
000001c0: 4ecc 5c3d e2f7 39bd 0d85 8abd fa3a 283d
000001d0: 7ace cdbd 2441 963c 0ed1 813d 59ce d83c
000001e0: 1e8d 3abd c89d e7bc 4d3c 94bd d898 71bc
000001f0: 88af e8bd bd16 c13d 4ade 7a3d d487 97bc
00000200: fa34 603d beb4 ea3b 58fb 0e3c 31e8 1c3d
00000210: d76b 7cbd 9c2f cd3d 2338 c63c 0ff6 51bc
00000220: 18d1 903d 59dd 323d 56fd aebd 1f96 49bd
00000230: 604a 583b b50a f23d d6f6 4dbd e6e1 87bd
00000240: b4d8 833c 4357 edbd dd4f 833d 8755 88bc
00000250: cbfb 77bd 2c34 a13c 165c 583d a5e3 f1bd
00000260: ff77 98bc 1eea d9bd 56db ccbd 504a 9abb
00000270: 80e1 94bd 3935 b53d 4841 153c e8d4 14bc
00000280: 1059 68bd dc7c 01bd 7de7 e43d f03e b6bb
00000290: d4e3 5dbd a8ed 703c ff20 223d b40a a33c
000002a0: 5c2d a43d 637f 98bd b45a 4e3d 0c04 cc3c
000002b0: b4dd 59bd 595a 7cbd be76 b13d a3d5 9b3d
000002c0: 4339 983d 6a91 c8bd fd90 b73d 3bcb da3d
000002d0: 2c6e 8c3c 2879 0b3c baec 1d3d 694e 72bd
000002e0: caff 66bd 0ae0 eebd b63e b6bd 9366 c7bb
000002f0: 4899 173c ec25 923c b0b2 19bd 981e 22bc
00000300: 1e11 bdbd 78f3 30bc 8285 1b3d 23e9 d73d
00000310: 1d64 333d 1a09 1c3d 749f 5dbd 0f37 cb3d
00000320: 7398 e2bc 6390 c1bd 2970 a6bd 141a 8ebd
00000330: 80eb 0a3a fda2 e43c fcc1 19bd df92 cfbd
00000340: b037 4e3d 309d 8bbc 2a68 1cbd 19a5 c53d
00000350: b1eb e53d a0ae 82bd 6ce5 ec3c 3812 c5bd
00000360: e57e ddbd 9f46 263d 8cc7 0bba 6233 853d
00000370: 0f85 bbbd 088d 383c 305f afbd 328a f4ba
00000380: 2064 09bd 73b8 afbd 7d46 aabd 4016 f6bb
00000390: 1db3 29bc a030 143d 62db 2dbd 8570 b13d
000003a0: 9ef9 643d c83b 50bc f781 92bd d908 9f3d
000003b0: 1fac 61bb c8b3 83bd 7ee5 453d 055f 71bc
000003c0: ccec 513d a25e 4e3d c7a6 a03d 73c6 263c
000003d0: 90d4 9fbd 5dee 61bb da76 883d 5655 693d
000003e0: cc62 af3b 699d dbbd d749 b13c 41ce 663b
000003f0: 4058 ecbc ac19 99bc 86a3 ddbb 662e a83d

layer_1.bias f4 [8]
-0.05098222 0.022116102 -0.07722624 -0.03820662 0.0007366388 -0.062309336 -0.062337097 0.10567867
00000000: bbd2 50bd d42c b53c ca28 9ebd 8b7e 1cbd
00000010: fe1a 413a 1338 7fbd 2f55 7fbd 0f6e d83d

layer_2.weight f4 [8, 8]
-0.12522809 -0.33418906 0.34684214 0.11521058 0.035317443 0.2785287 -0.3144195 -0.19926497
0.044091552 0.18757316 0.08718565 -0.065784514 -0.32856634 -0.33353135 -0.27768612 0.24750844
0.2302728 0.030749828 0.25911114 -0.2629407 0.16601565 -0.1830205 -0.13798013 -0.15967742
-0.28873295 -0.026022809 -0.023319377 0.107465334 -0.3253284 0.25844452 0.33540535 -0.31192827
-0.2926015 -0.24742581 -0.07667638 -0.008659891 -0.011438432 -0.049640708 -0.09573003 -0.13138883
0.18517917 -0.055182446 -0.05401439 -0.031080386 0.18238837 0.24553467 0.12573563 0.18767214
-0.092694476 -0.12802021 -0.35292408 0.27326235 -0.1579536 0.32210782 -0.27801993 0.08287691
-0.2833072 0.33146217 0.24304661 -0.27833658 0.30014005 0.28864744 -0.17979684 -0.27715722
00000000: cb3b 00be d41a abbe 4b95 b13e 86f3 eb3d
00000010: 06a9 103d 509b 8e3e 98fb a0be 1e0c 4cbe
00000020: 5899 343d 2e13 403e 648e b23d 08ba 86bd
00000030: d939 a8be 9fc4 aabe e02c 8ebe da72 7d3e
00000040: a2cc 6b3e 10e7 fb3c 37aa 843e 2aa0 86be
00000050: 0200 2a3e ba69 3bbe aa4a 0dbe 7a82 23be
00000060: ced4 93be c92d d5bc 4708 bfbc c916 dc3d
00000070: 7291 a6be d752 843e 40ba ab3e 10b5 9fbe
00000080: ddcf 95be 315d 7dbe 8208 9dbd 37e2 0dbc
00000090: 4368 3bbc 0e54 4bbd 1b0e c4bd cb8a 06be
000000a0: 9c9f 3d3e fd06 62bd 313e 5dbd 4b9c febc
000000b0: 04c4 3a3e 716d 7b3e d7c0 003e 202d 403e
000000c0: 9ad6 bdbd bb17 03be 77b2 b4be 0be9 8b3e
000000d0: 97be 21be 51eb a43e a158 8ebe 5fbb a93d
000000e0: a40d 91be 69b5 a93e 36e1 783e 2282 8ebe
000000f0: f5ab 993e 99c9 933e aa1c 38be 8de7 8dbe

layer_2.bias f4 [8]
0.12312003 -0.16861631 -0.24645656 0.05978227 0.07307303 0.19894545 -0.04853822 -0.29761082
00000000: 5b26 fc3d c1a9 2cbe 1c5f 7cbe 41de 743d
00000010: 50a7 953d 5bb8 4b3e 03d0 46bd 7260 98be

layer_3.weight f4 [3, 8]
-0.30417892 -0.21110761 0.06283331 -0.17180626 0.006729952 -0.15901592 -0.09454614 -0.017078161
-0.3008468 -0.17574187 -0.009530455 -0.07332505 -0.27554035 0.04056529 -0.095250934 -0.29856738
-0.28364652 -0.04525125 0.24731377 -0.11647668 -0.2252412 -0.11387525 -0.28185466 0.2034351
00000000: 57bd 9bbe 982c 58be c0ae 803d fbed 2fbe
00000010: ee86 dc3b 12d5 22be 68a1 c1bd 80e7 8bbc
00000020: 9708 9abe adf5 33be a025 1cbc 722b 96bd
00000030: a013 8dbe ca27 263d ec12 c3bd d3dd 98be
00000040: 1e3a 91be 6059 39bd d23f 7d3e 538b eebd
00000050: a1a5 66be 6d37 e9bd 414f 90be 4a51 503e

layer_3.bias f4 [3]
0.3029716 0.02096323 -0.13613535
00000000: 181f 9b3e 14bb ab3c 1167 0bbe
