checkpoints/best_model.pth (torch, 5222 bytes, 6 tensors)

layer_1.weight f4 [8, 70]
-0.094808556 0.0021691648 0.0498844 0.04260064 -0.056153268 -0.0069583952 -0.060227193 -0.075936794
0.118743435 0.085200086 -0.10711433 0.019329377 0.08147729 -0.01339075 -0.02985394 -0.035580307
-0.014344357 -0.0057339296 0.09926678 0.04870572 -0.051670812 -0.07684427 0.032952927 -0.07373941
-0.007465055 -0.01513499 0.078776166 -0.055738643 0.07576412 -0.0017606448 0.092616946 0.0435958
-0.05753094 -0.08836145 0.076572835 -0.09776394 0.044253588 -0.0696287 -0.030556338 -0.015715607
-0.0853403 0.057235114 0.0939386 0.01773896 0.113648154 -0.08617521 -0.11540458 0.10589481
0.11349269 -0.1189543 -0.03291083 -0.098748654 -0.010536871 -0.002166925 -0.020810153 -0.035787866
-0.081346735 0.09576877 -0.03098578 -0.053905003 0.08588686 -0.09539034 -0.10669552 0.014280967
0.09115945 -0.10833123 -0.09133275 -0.043891676 0.07035899 0.004712887 0.102777794 -0.09728833
-0.107541054 -0.07363685 0.10321481 -0.079502195 -0.01641354 -0.08516808 -0.020430414 -0.06741102
-0.108079635 -0.04083372 -0.019456249 -0.08413343 0.099332474 -0.06360705 0.098262824 0.029087063
-0.08557366 -0.07826691 -0.09802036 0.0382416 -0.044724014 -0.023794672 0.0071539986 0.06014843
0.08084277 0.061653398 0.090166025 0.11128121 0.0067927423 0.08108201 0.08259555 0.04179569
0.06655285 -0.09250712 0.080002055 0.09130662 -0.08251974 -0.030111562 0.08131512 -0.07114108
-0.075737 -0.000528194 0.08082094 0.025007201 0.0548366 -0.053209662 0.014134207 0.044848043
-0.0020923372 -0.009211673 0.056150496 -0.09657499 -0.031973068 -0.107253276 0.03284231 -0.0737121
0.10401871 0.039410245 -0.03407262 0.08774004 0.024617586 -0.066059746 0.07038804 0.06756851
0.02722692 0.10588882 0.08937353 0.074857645 -0.058110926 0.10372641 0.056078162 -0.027849557
0.10307982 0.0003818795 0.035772137 -0.0654166 -0.040161427 -0.115542375 -0.0996309 -0.07745107
0.07449302 -0.071443394 -0.08053935 0.0131496405 0.050239928 -0.04727129 0.116299994 0.038019467
-0.031767234 -0.03234906 0.07578996 0.059489936 -0.042463418 -0.06643031 0.041135825 0.038743548
-0.06732549 0.063940324 -0.088174425 -0.0075078555 0.069211565 -0.07678333 0.076776475 0.033529334
0.028838094 0.051316522 0.042870082 0.049174648 -0.017362481 0.04544934 0.05931148 -0.0135308355
0.11620606 0.082052045 -0.063342646 0.05450373 0.099113986 0.0048574177 -0.019214846 0.084567845
0.033785414 -0.08495929 -0.031301845 -0.03418863 -0.002043642 0.09297745 -0.013609552 -0.07065215
-0.010425385 -0.09161426 -0.06778804 -0.09659024 -0.041926865 0.09760761 -0.04808771 0.02970378
0.094341636 0.10029019 0.051122755 -0.04150461 -0.101200595 -0.012121394 -0.04334701 -0.07829915
-0.10889547 0.10379008 -0.11727664 -0.04265037 0.04546567 -0.11919705 -0.01634606 -0.033708826
-0.011539772 0.086357005 0.029446697 0.00472275 0.015426941 0.10383855 0.048458632 0.086427644
-0.033816352 -0.07880989 0.063164696 0.010273464 -0.009948999 -0.017381035 0.00887125 -0.06098899
0.11269039 -0.02835983 -0.02623424 -0.08660308 -0.08513848 -0.0267935 -0.10171645 -0.08181988
0.037039075 0.07322585 -0.034735918 -0.07351212 -0.111941874 -0.033289276 0.046796888 0.10542113
00000000: fd2a c2bd 8c28 0e3b 9653 4c3d 027e 2e3d
00000010: f800 66bd 4003 e4bb cab0 76bd c084 9bbd
00000020: c22f f33d 627d ae3d c25e dbbd a458 9e3c
00000030: 91dd a63d e064 5bbc 4090 f4bc a8bc 11bd
00000040: 9804 6bbc b0e3 bbbb 624c cb3d a67f 473d
00000050: c6a4 53bd 8760 9dbd a6f9 063d b004 97bd
00000060: 6c9d f4bb c0f8 77bc 6655 a13d 344e 64bd
00000070: 382a 9b3d 70c5 e6ba f4ad bd3d 8291 323d
00000080: 90a5 6bbd d9f6 b4bd 38d2 9c3d 7638 c8bd
00000090: 4043 353d 7e99 8ebd 4951 fabc 04be 80bc
000000a0: e5c6 aebd 5e6f 6a3d e162 c03d 4c51 913c
000000b0: 5dc0 e83d a17c b0bd 3d59 ecbd 61df d83d
000000c0: db6e e83d 509e f3bd 82cd 06bd bc3c cabd
000000d0: d7a2 2cbc f802 0ebb 0e7a aabc 4c96 12bd
000000e0: 1e99 a6bd 6b22 c43d e4d5 fdbc 7ecb 5cbd
000000f0: 73e5 af3d 035c c3bd 2e83 dabd b8fa 693c
00000100: ceb1 ba3d c4dc ddbd aa0c bbbd c2c7 33bd
00000110: 6018 903d 906e 9a3b 2a7d d23d 1b3f c7bd
00000120: 7c3e dcbd ebce 96bd 4962 d33d 0cd2 a2bd
00000130: b075 86bc 9a6c aebd af5d a7bc ca0e 8abd
00000140: db58 ddbd 4241 27bd b662 9fbc 264e acbd
00000150: d36e cb3d 6a44 82bd 053e c93d fe47 ee3c
00000160: 3e41 afbd 674a a0bd e6be c8bd 39a3 1c3d
00000170: 8730 37bd 0bed c2bc 176c ea3b 335e 763d
00000180: e590 a53d 4688 7c3d f7a8 b83d 67e7 e33d
00000190: a795 de3b 530e a63d db27 a93d f531 2b3d
000001a0: dc4c 883d 5f74 bdbd 1ed8 a33d f7fe ba3d
000001b0: 1c00 a9bd 86ac f6bc 8b88 a63d 6ab2 91bd
000001c0: 001c 9bbd 8076 0aba 7385 a53d e7db cc3c
000001d0: 589c 603d 60f2 59bd 2993 673c 95b2 373d
000001e0: 981f 09bb 8fec 16bc 10fe 653d 1cc9 c5bd
000001f0: 31f6 02bd 9ba7 dbbd a885 063d 5ff6 96bd
00000200: c307 d53d a36c 213d bb8f 0bbd 0db1 b33d
00000210: d2aa c93c 554a 87bd 9b27 903d 5c61 8a3d
00000220: fd0a df3c 3ddc d83d 7809 b73d f74e 993d
00000230: b905 6ebd 836e d43d 37b2 653d c124 e4bc
00000240: 831b d33d 0037 c839 ce85 123d 23f9 85bd
00000250: 4f80 24bd 7ba1 ecbd 490b ccbd ab9e 9ebd
00000260: cc8f 983d ea50 92bd d1f1 a4bd 9771 573c
00000270: 62c8 4d3d 8a9f 41bd b12e ee3d 4dba 1b3d
00000280: 5c1e 02bd 7380 04bd c437 9b3d b8ab 733d
00000290: 1fee 2dbd 9d0c 88bd 0a7e 283d 8eb1 1e3d
000002a0: f2e1 89bd 25f3 823d cb94 b4bd 7504 f6bb
000002b0: cbbe 8d3d 9440 9dbd fc3c 9d3d 0e56 093d
000002c0: de3d ec3c 4631 523d 8a98 2f3d 5b6b 493d
000002d0: c33b 8ebc 1629 3a3d 98f0 723d 70b0 5dbc
000002e0: 71fd ed3d e70a a83d cab9 81bd 4e3f 5f3d
000002f0: 46fc ca3d f92a 9f3b 7468 9dbc e831 ad3d
00000300: 9362 0a3d 23ff adbd 5d36 00bd 6009 0cbd
00000310: a0ee 05bb f66a be3d 99fa 5ebc 13b2 90bd
00000320: 3ccf 2abc 42a0 bbbd 75d4 8abd 1bd1 c5bd
00000330: 81bb 2bbd 80e6 c73d 9ef7 44bd 5755 f33c
00000340: 3036 c13d f164 cd3d 1866 513d bd00 2abd
00000350: 4242 cfbd d098 46bc a28c 31bd 4e5b a0bd
00000360: 9704 dfbd e58f d43d bc2e f0bd 28b2 2ebd
00000370: 363a 3a3d 951d f4bd 2ce8 85bc 4412 0abd
00000380: 5011 3dbc f1db b03d 333a f13c 4cc1 9a3b
00000390: 48c1 7c3c 4ea9 d43d 8f7c 463d fa00 b13d
000003a0: 0483 0abd 1467 a1bd 7e5c 813d 0852 283c
000003b0: 2001 23bc ac62 8ebc b858 113c 97cf 79bd
000003c0: 38ca e63d e052 e8bc 30e9 d6bc f55c b1bd
000003d0: 155d aebd 0b7e dbbc b750 d0bd 2e91 a7bd
000003e0: 49b6 173d 6ff7 953d 4047 0ebd 868d 96bd
000003f0: c841 e5bd 565a 08bd 18ae 3f3d 09e7 d73d

layer_1.bias f4 [8]
-0.02346024 0.116645664 0.08403945 -0.020978745 0.10405415 0.09215913 -0.056246944 -0.038338095
00000000: b02f c0bc ece3 ee3d e01c ac3d 9edb abbc
00000010: 581a d53d edbd bc3d 3263 66bd 6808 1dbd

layer_2.weight f4 [8, 8]
-0.06505993 0.18718371 -0.026803702 -0.0075656474 -0.28564495 -0.05566153 -0.30986166 0.2263231
-0.048923224 -0.1429622 -0.17328666 0.10619406 -0.31296092 -0.018708318 -0.22324982 -0.18997462
0.20194821 0.084216185 0.12790719 0.020403955 -0.09155523 0.3218262 0.27157715 -0.18067043
0.30576226 -0.0740342 0.11969977 -0.14494759 0.03208823 -0.020690575 0.08981006 -0.016275981
-0.12604354 -0.24154693 0.2447598 0.23864521 0.18031433 0.16977738 -0.011145547 -0.35122633
0.2648575 -0.15274528 0.32205376 -0.2814715 -0.050503373 -0.23299158 -0.111044765 -0.14395037
-0.019972712 -0.2665693 0.20769492 -0.17239018 0.29885647 -0.24878779 0.13546133 0.10028803
-0.002080202 0.22064903 -0.27490833 0.19646111 -0.1728092 -0.19535494 -0.21387 -0.07922399
00000000: 243e 85bd 16ad 3f3e 7093 dbbc 40e9 f7bb
00000010: 0e40 92be 58fd 63bd 30a6 9ebe 3ec1 673e
00000020: b863 48bd af64 12be 0f72 31be 457c d93d
00000030: 6a3c a0be 3042 99bc 9a9b 64be b588 42be
00000040: 83cb 4e3e 8979 ac3d 1afa 023e 3226 a73c
00000050: 4f81 bbbd 67c6 a43e 290c 8b3e ab01 39be
00000060: df8c 9c3e 3e9f 97bd 2725 f53d 246d 14be
00000070: f36e 033d 487f a9bc 56ee b73d 3555 85bc
00000080: 8f11 01be 1458 77be 50a2 7a3e 695f 743e
00000090: 52a4 383e 1fda 2d3e d09b 36bc f0d3 b3be
000000a0: 679b 873e 4269 1cbe 3be4 a43e 081d 90be
000000b0: a0dc 4ebd 5895 6ebe 706b e3bd ba67 13be
000000c0: d09d a3bc c57b 88be faad 543e 0d87 30be
000000d0: b703 993e 3ac2 7ebe 60b6 0a3e d063 cd3d
000000e0: 0054 08bb d2f1 613e c9c0 8cbe 1a2d 493e
000000f0: e5f4 30be 200b 48be bd00 5bbe 3040 a2bd

layer_2.bias f4 [8]
-0.14242853 0.081285134 0.048703775 0.02205712 0.014249821 -0.10861045 -0.31658703 -0.2748304
00000000: c9d8 11be d278 a63d 9c7d 473d 22b1 b43c
00000010: 1578 693c 286f debd b217 a2be 92b6 8cbe

layer_3.weight f4 [3, 8]
0.06616512 0.05933309 0.014412866 0.032714352 -0.30486396 0.05178836 0.24060461 0.03093338
-0.026312292 0.218064 -0.13592681 0.31396222 0.2671757 -0.04280767 -0.027499855 0.08762351
-0.21123752 0.33074054 0.26716563 0.08446303 -0.22001679 0.105142295 -0.14609425 -0.28773773
00000000: 9481 873d 4107 733d f123 6c3c 7cff 053d
00000010: 2117 9cbe 0820 543d 0e61 763e 0068 fd3c
00000020: e08c d7bc 2b4c 5f3e 6630 0bbe a8bf a03e
00000030: 41cb 883e 1857 2fbd 6047 e1bc f473 b33d
00000040: a64e 58be d356 a93e efc9 883e f4fa ac3d
00000050: 154c 61be d854 d73d bb99 15be 5c52 93be

layer_3.bias f4 [3]
0.30576396 0.26391482 0.095325686
00000000: 188d 9c3e d81f 873e 1d3a c33d
