checkpoints/best_model.pth (torch, 5222 bytes, 6 tensors)

layer_1.weight f4 [8, 70]
000000 56 e7 67 3d 26 cc ad bd 80 96 98 bd d7 16 88 3d
       0.056617104 -0.08486204 -0.074505806 0.06644981
000010 0d 4a 77 3d c6 bf d5 3b 16 61 f8 bc 9c 7f 4b bd
       0.060373355 0.0065231053 -0.030319732 -0.049682245
000020 81 71 30 3d 75 9e e3 3d 6f c1 a4 bd 54 03 3b 3c
       0.043076996 0.11114208 -0.08044707 0.011414368
000030 e8 2b ff bc ce 33 06 3d df 60 a7 3d 86 77 66 3d
       -0.031148866 0.03276425 0.081727736 0.05626633
000040 92 2c 19 3d cc cd 49 bd 8c d3 b0 3b 15 ad ea 3d
       0.03739602 -0.04926853 0.005396312 0.11458794
000050 4c ab da 3c e1 8f da 3d 52 ee 15 bd 22 fb 5e 3d
       0.026693009 0.10671974 -0.036604233 0.054438718
000060 79 3a cc 3d f8 a5 5d bd e8 b5 88 bd c4 bc 72 3d
       0.0997209 -0.05411336 -0.06675321 0.059262052
000070 a2 27 18 3d bb b3 ce 3d 94 f6 82 3c de 9c 40 bc
       0.03714717 0.100928746 0.015986718 -0.01175615
000080 78 53 61 3d fa 60 7c 3d 03 75 bb 3d 21 5b 23 3c
       0.055011243 0.06161592 0.091531776 0.009970457
000090 f0 a5 23 bd 24 69 5b 3c 15 12 89 bd d5 92 89 3c
       -0.039953172 0.013391767 -0.06692902 0.016793648
0000a0 a0 d7 63 bc 76 ea de bb a7 95 8d 3d 46 a3 ea 3d
       -0.0139063895 -0.0068028523 0.069133095 0.11456923
0000b0 c1 e8 cc 3d 4b c7 a5 3d f0 e9 ab bd 94 09 da bd
       0.10005332 0.08094653 -0.083942294 -0.10646358
0000c0 ea a1 68 3b 52 30 16 bd be f9 20 3d aa a4 65 3d
       0.00354969 -0.036667176 0.039300673 0.05606524
0000d0 df 07 89 bd f2 9d 0c bc 86 55 a2 bd 88 da 01 3c
       -0.066909544 -0.008582579 -0.079264686 0.007925637
0000e0 2c 6b db bc c9 f6 84 3d 35 26 f9 3b 07 7a 1a 3c
       -0.026784502 0.06492383 0.0076034316 0.009428508
0000f0 aa 6b ce 3c 74 7e f8 3c 3d 36 a7 3d 38 9a 91 bc
       0.025197823 0.030333735 0.08164642 -0.017773733
000100 e9 2d 9b bd b9 5f d0 bc 6f 88 a4 bc 84 2a b0 bc
       -0.07577116 -0.02543627 -0.020084588 -0.021504648
000110 ff 79 ad bd 40 77 bd ba 2f cd d4 bd 68 21 e1 3d
       -0.084705345 -0.0014455095 -0.10390698 0.109927
000120 68 a8 47 bc e7 aa f2 bd f3 18 d3 3d cc d9 d1 3d
       -0.012186147 -0.11849003 0.10307493 0.102466196
000130 c3 0c 61 3d 23 03 ef 3d be f2 b0 bc a6 60 39 3c
       0.05494381 0.1167052 -0.021600123 0.011314547
000140 6a 25 84 3d fc c1 e1 bd df 8b 72 bd 24 18 9b bd
       0.06452449 -0.11023328 -0.059215423 -0.07572964
000150 a0 fd 7c 3b ac 5c ac bc 54 f7 dc bc f3 6c a5 3d
       0.003860332 -0.021040283 -0.026973404 0.08077421
000160 34 31 a8 bc 7e f7 06 bd de 31 7a bd 78 cc 88 bd
       -0.020531274 -0.03295087 -0.061082713 -0.06679624
000170 aa 98 86 bd 50 a0 6b bc 5c 38 94 3c 98 43 4f bc
       -0.06572087 -0.014381483 0.01809328 -0.012650393
000180 5d 71 e0 3c 6b f1 e9 bd 3a 7a 4d 3d ca 38 e9 3b
       0.027397806 -0.11423 0.050165392 0.0071173655
000190 88 11 8c bd 3e 65 dd bd 6f 9b de 3d 7e 3b e1 bd
       -0.06839281 -0.10810326 0.1086949 -0.10997675
0001a0 ae 8d 62 bd a8 a4 e5 bc 53 1d c5 3d 7a a3 13 3c
       -0.055310898 -0.028032616 0.09624734 0.009011144
0001b0 8c c4 d8 3d a0 6e 2c 3b 82 bf 0a 3d 6f 56 89 3d
       0.10584363 0.0026311055 0.033874042 0.06705939
0001c0 b7 10 bb 3d dc ea 4e 3c 98 37 5d bc 22 bd bc bd
       0.091340475 0.012629237 -0.013502024 -0.09215762
0001d0 48 6a 26 3c 05 1e 25 3d 48 71 c7 bd 07 1e b6 3d
       0.010157175 0.040311832 -0.097384036 0.08892446
0001e0 2f 1d 7e 3d 8d a3 d1 bd f8 bd 64 bd 6a 0e 4e 3d
       0.06203955 -0.10236273 -0.05584523 0.050306715
0001f0 66 ca 3d 3d f2 54 d0 bd c7 d8 a0 3d f4 23 96 bc
       0.0463356 -0.10172452 0.07853847 -0.01832769
000200 40 c2 a2 bb ff 4c 75 bd a0 6a d5 bc 00 10 a8 ba
       -0.004967004 -0.059887882 -0.02605182 -0.0012822151
000210 7d f7 a8 3d ad 5d f1 bd 00 02 e7 b9 9a 39 57 bb
       0.0825033 -0.11785445 -0.00044061244 -0.003284073
000220 50 53 ee bd 70 45 af bd f8 5f 24 bd 2e 34 37 3d
       -0.11636984 -0.08558166 -0.040130585 0.044727497
000230 1a a7 08 bd 6a 8b 9e bd 5b 83 6d bd a7 92 bf 3d
       -0.033362485 -0.07741435 -0.0579866 0.093541436
000240 46 6f 08 bd 80 ba 91 3a ba 4b 79 bd 97 7b c4 3d
       -0.033309244 0.0011118203 -0.060863234 0.095938854
000250 1a 21 da bd a8 8d 51 bd d0 79 e4 3b 88 61 13 3c
       -0.10650845 -0.051160485 0.006972529 0.008995421
000260 2d d6 9b 3d 70 7c 2a bd 01 c6 b4 3d 50 7d ce 3d
       0.0760921 -0.04162258 0.08826829 0.10082495
000270 fa 9e bf 3d 65 d9 a5 3d 53 da 9b 3d c8 a3 a4 bd
       0.09356494 0.08098105 0.076100014 -0.08039051
000280 30 af bf bd 0a db 11 3d fb 28 81 3d 6e 39 8e bd
       -0.09359586 0.035609283 0.063066445 -0.069445476
000290 84 3f c9 3c 6f 86 f2 3d c0 00 83 ba 39 f4 d6 bd
       0.02456642 0.118420474 -0.000999473 -0.104958005
0002a0 a8 28 6a bc 03 d2 b2 3d 60 48 bd bd 15 93 f4 3d
       -0.01429192 0.08731463 -0.0924232 0.11942116
0002b0 f3 d8 c8 bc 58 cf b0 bd ac 97 cc bc ac 0d 96 bd
       -0.024517512 -0.08633298 -0.024974667 -0.073268265
0002c0 36 69 9e 3d 00 2c 77 b9 02 f3 8f bd 83 f6 c3 3d
       0.07734911 -0.00023572147 -0.07028772 0.09568503
0002d0 e8 31 58 3c d5 38 a0 3d f1 b1 a1 3d 0a 70 04 3d
       0.013195492 0.0782334 0.07895268 0.03233341
0002e0 16 8f 98 bd 97 d8 f2 3d 7c bf 16 bd a1 99 84 3d
       -0.074491665 0.118577175 -0.036803707 0.06474615
0002f0 23 2d 8c 3b da e0 49 bd 9e 51 2b bd 92 f8 04 3d
       0.0042778417 -0.0492867 -0.041825883 0.032463618
000300 28 f1 06 bc 84 5a 78 3d f6 9a 0a 3c b7 f0 b5 3d
       -0.008236207 0.060633197 0.008459797 0.08883803
000310 c9 88 b6 bd f4 1e eb bd af 96 7d 3d 8c 6c d4 3b
       -0.089128084 -0.11480513 0.06191128 0.0064826664
000320 3e f9 da bd 78 05 eb bd fb 1a d4 3d d6 d0 32 3d
       -0.106920704 -0.114756525 0.103567086 0.043656193
000330 4c 28 85 3c 94 07 d7 3c e6 5f c5 bd bc 2c eb bd
       0.016254567 0.02624873 -0.09637432 -0.11483142
000340 d9 71 df 3d 18 94 4c 3c 77 c2 c4 3d dd 15 d1 bd
       0.109103866 0.01248648 0.09607404 -0.10209248
000350 91 9c d0 3d ab b0 29 bd 6b 18 74 bd 3a b3 b9 3d
       0.10186113 -0.04142825 -0.0595936 0.09067388
000360 09 5e c9 bd 05 df 1b 3c ea a4 a7 3d 2a 92 c7 3d
       -0.09832389 0.009513621 0.08185752 0.097446755
000370 7d 71 59 3d d0 9a 85 3d 27 b3 b7 bc f4 90 27 bd
       0.053086746 0.06523669 -0.022424294 -0.040909722
000380 8b 5e 91 bc 6a 0b 1f 3d b6 01 0c 3d 30 5c 83 bd
       -0.017745277 0.038829245 0.03418132 -0.06414068
000390 70 c2 6d bd 68 c3 32 3d f1 80 d3 bc e4 7e db 3b
       -0.05804676 0.043643385 -0.02581832 0.006698476
0003a0 69 8b 9b 3d a6 57 e0 3d e8 4b 63 3d 0c 77 87 bd
       0.0759495 0.109542176 0.05549231 -0.06614503
0003b0 3a f4 1c 3d af c9 93 3c 5f 8c e9 3d 74 43 95 3d
       0.03831885 0.018040506 0.11403727 0.07288256
0003c0 f9 d7 90 3d 89 b0 ed 3d e7 31 f6 3c 1c cd e3 3d
       0.070724435 0.11605937 0.030053092 0.11123106
0003d0 14 e6 58 3d 26 4a 38 3c 55 2c fb 3c 68 bd e3 bc
       0.052953795 0.011248147 0.030660788 -0.027800277
0003e0 32 16 7a 3d 8e 6e d0 bd a1 ca b0 3c 08 11 7f 3c
       0.061056323 -0.10177337 0.021580996 0.015568025
0003f0 f6 a4 55 3d e3 05 ee bd 16 22 2f bd 85 b8 50 3d
       0.052159272 -0.116222166 -0.042757116 0.05095722

layer_1.bias f4 [8]
000000 70 61 85 bd d5 10 ed 39 95 cc 91 bc 11 17 22 3d
       -0.06512725 0.00045216703 -0.017797748 0.03957278
000010 91 9f a5 3d d9 e2 c2 bc 9f ee ab bb ee 45 bf 3d
       0.080870755 -0.02378981 -0.0052469517 0.0933951

layer_2.weight f4 [8, 8]
000000 c0 f6 59 be 64 ec 3c be 20 f0 bd 3d b0 0b 78 be
       -0.21285534 -0.18449551 0.09274316 -0.24223208
000010 30 01 6c 3e e9 f5 3b 3e d4 0d 42 be ec 38 81 3e
       0.23047328 0.18355526 -0.18950588 0.2523874
000020 46 fa df bd 3c 4f 7f 3e 9e 8a a3 3c 27 82 97 bd
       -0.10936408 0.2493257 0.019963559 -0.073978715
000030 ba ed 6a 3e 75 cf 87 3e bc dc 06 3d 1c 61 8c be
       0.22942248 0.26525465 0.032925352 -0.2741784
000040 ba dc 31 be d5 fd b2 be 4a dd 16 3e 1d 2f a6 be
       -0.17369357 -0.34959283 0.14732853 -0.3245782
000050 81 bb 84 3e 44 37 eb 3d 00 9e fe 3c 36 66 a1 be
       0.25924304 0.114851505 0.0310812 -0.31523293
000060 06 a5 a9 be fa b0 83 bb 05 81 d9 bc f8 df 88 bc
       -0.33133715 -0.0040189 -0.02655078 -0.01670836
000070 8d 7f ac 3e 90 16 02 be eb 06 a6 3e f9 a4 4f bd
       0.33691064 -0.1270392 0.32427153 -0.05069444
000080 99 65 e3 3d b8 4e 82 3d ba 9c 3e 3e 95 89 99 3e
       0.111033626 0.06362671 0.18614474 0.2998778
000090 76 e1 3b 3e 3a e1 96 be f9 8b 98 be 65 ee c8 3d
       0.18347725 -0.2946871 -0.2979429 0.09811095
0000a0 5e a6 84 be 42 26 96 3e 86 68 85 be 1e 07 cf 3d
       -0.25908178 0.29326063 -0.26056308 0.10108779
0000b0 07 71 17 3d db 57 1e bd b7 39 6d 3e 62 3a 01 3e
       0.036973026 -0.038658004 0.23166548 0.12619928
0000c0 a7 72 40 3e d4 63 be 3d 40 a9 19 3e 58 b8 63 3e
       0.18793736 0.092963845 0.1500597 0.2223829
0000d0 a5 b3 8b 3e 6b 69 ac be 1a 40 e3 bc 53 7c c8 bd
       0.27285495 -0.33674178 -0.027740527 -0.09789338
0000e0 a0 66 1c 3d 69 2f ae be 56 26 12 3e 22 98 ac 3c
       0.03818381 -0.34020546 0.14272436 0.021068636
0000f0 8b 6d 9d 3e 2b a8 5c 3d 07 eb 29 3b 22 05 d2 3d
       0.30747637 0.053871315 0.002592744 0.10254885

layer_2.bias f4 [8]
000000 e5 1a f2 3c ba b6 b4 3e aa 0f 9b be 15 b1 7c bd
       0.02955384 0.3529566 -0.30285388 -0.061692316
000010 f2 4a b1 3e ae cc 59 3e 7c c8 9e 3e 26 b2 74 3e
       0.3462749 0.21269485 0.31012332 0.23896083

layer_3.weight f4 [3, 8]
000000 95 8b 87 be 2b 8e a7 be 6b 9e a7 3e fd 4b 33 be
       -0.2647368 -0.32725653 0.3273805 -0.17509456
000010 43 f8 a8 be e8 b9 81 3e 9b e8 09 3d 54 6b 9b 3e
       -0.3300191 0.25337148 0.033669095 0.30355322
000020 f3 8a eb bd ee 78 5b bb 78 c5 8a bd 94 f9 a5 bd
       -0.11501112 -0.0033488828 -0.067759454 -0.08104244
000030 f9 cf 4b be 22 89 ae bc 1e 9c a6 be 5a be 63 be
       -0.19903554 -0.021305624 -0.32540983 -0.22240582
000040 1e 87 a8 be d9 e0 b0 be 9b 00 01 be 11 43 52 3e
       -0.32915586 -0.34546545 -0.12597887 0.20533396
000050 67 67 bd 3d b5 b0 7f be 2e 9e 6c bd 7d 71 83 be
       0.09248238 -0.24969752 -0.05776804 -0.25672522

layer_3.bias f4 [3]
000000 a7 47 a7 3e e0 e2 1c bd 0a a1 1e 3e
       0.32671854 -0.038302302 0.15491119
