checkpoints/best-model.pth (torch, 14374 bytes, 6 tensors)

layer_1.weight f4 [20, 121]
00000000: da75 0f3d b885 8b3d d3b0 313d 3825 053e
00000010: 2efc dfbd 2469 b63d 5dfe ac3d 9398 c73d
00000020: e815 4fbd 8e2b 2f3e c69d f23d 7ae5 023e
00000030: 2c4d 213e a1d3 173c 9820 983d ed57 1e3e
00000040: c948 d83d 7362 613e ed15 543d c1f0 b03d
00000050: c9d1 503e 127c 193e 5a82 ad3d 0f92 0fbd
00000060: 7aba 7cbd 4df5 623d d55e ea3d 080c 0a3d
00000070: 4a33 383a 2404 3cbb 4666 903a 0415 f8bc
00000080: c6ff 54bd 2d7f b3bd 2f9e d03d 699f 003e
00000090: d524 8a3d 10dd c53d 3c1c 703d df9f a93c
000000a0: dc04 1d3e 95a6 823d 8b04 b6bc 9232 fe3d
000000b0: e7f8 353e 2970 063e 8954 713d 492b a8bd
000000c0: f0e2 bb3d a64b f53c 48d9 393e cd48 233b
000000d0: 1d70 583e b52d 3ebb eb49 f63d 7cdf 653e
000000e0: 834d 363d f893 413e 8012 f33d d10f 5f3e
000000f0: 3b0e 4a3d ed84 81bd 07d8 123e 7181 ee3d
00000100: e623 963c 1027 ec3d ab47 b63d 3168 3d3d
00000110: 6380 983e 0896 97bc eff4 2abd 541f 223e
00000120: 9954 a03c e6f8 c53d c336 7c3e 3047 003e
00000130: cb7a a83d 75b6 bcbd 397a d73d fd6c fc3d
00000140: fd26 953d 0512 aa3c 960c d83d 6d2f d3bd
00000150: ce5d 18bc c5a3 f5bd 75f6 fb3d 7322 ba3d
00000160: 5645 423d 6f18 4e3e 9503 293e aaa6 a93d
00000170: 1f93 a83d 199e 91bd 99bb 523e 0b05 2c3e
00000180: ab73 413e b54f b8bb 0cae 203e 187d 4f3e
00000190: ecf6 a23d 0f4b 8e3d 6b35 6a3d 3963 0d3e
000001a0: 51eb 5d3d 02c5 debc 4a37 f23d 84e9 70bb
000001b0: aabc b3bd ab36 4cbd eee4 0f3e c0ba 983d
000001c0: 34a2 103e 0404 3abc 3dc7 1d3e 3e92 1d3e
000001d0: 2ce7 e53d 9b89 1a3e fbe6 033e 3e81 853c
000001e0: ced2 a83d 1d4f cd3c 9e71 c7bd a5a6 ee3d
000001f0: ad56 003e 30d4 a8bb d97d ad3c d8df 2fbd
00000200: 0df5 1c3d 52ae 063d 0cb9 333e 166e 8fbd
00000210: d66e a73c 1588 423c 2d0a d23b 1032 ee3d
00000220: 29ed b5bd 7ab5 4fbc 1e31 94bc 38c3 b3bb
00000230: ddde 8abd a666 b1bd 785c 1cbe 4e38 bcbb
00000240: 47e9 acbd d746 9abc cc91 bf3d 7c79 a1bd
00000250: 8cad 24bd e574 1f3e 1157 1dbb 57c6 7bbb
00000260: dcca 2f3d 2ef5 09bd d77c d7bd 91ee c3bd
00000270: 0834 6dbd 6c30 e9bc 89fe 883d 84c0 cd3d
00000280: 4c57 90bd 7749 5dbd 57c8 18bd 64ca 1b3d
00000290: a474 2b3e 833e 253d 9f42 683d be4a 2d3e
000002a0: 2f43 00be c045 be3b 28e5 c23c 0130 41be
000002b0: 9006 6b3c 1e16 58bd 4ee7 47bd 2f18 02bd
000002c0: dddd 073e db07 96bd e127 493d b09e 50bd
000002d0: dca4 a0bd 452d 113d d73c b5bd 615a 08bc
000002e0: ca25 a8bd 30e1 953d 4dcc 8a3d 8761 7a3d
000002f0: 758c 9bbd 3230 703e ec22 01bd 5c0f 273c
00000300: 2e72 77bd 9650 86bd 02f4 4bbd 2363 e03d
00000310: f457 80bd e6ec 0cbd 90d7 4bbd 2761 843d
00000320: 30a0 5e3d ff6f 86bd de7b bd3d fc29 5dbd
00000330: 6ffa 98bd f8b7 603a 708e bbbd a6a6 50bd
00000340: d2ed bdbc 1b63 61bd 214e 7ebd b2ec 3fbb
00000350: 846a debd eb68 383c 6f91 403d 712b 9bbd
00000360: a051 273e 32ac 0dbd cbbb cdbd 5618 7c3e
00000370: abc9 93bd 15d9 203d 6a87 a9bc 202a c6bd
00000380: f2a4 a1bc 1b3e ccbd b58a c1bd ac0f 853c
00000390: bd63 dc3c 84ef b13b 1d78 66bc 196c 253e
000003a0: bd39 133e c143 adbd c2af 1dbd 1bdb 853d
000003b0: 1091 e73d 12d9 9cbd e1e4 12bd 94f4 88bd
000003c0: 7e0d 3b3d 8f77 9dbc 6f48 433e 8ddb a23d
000003d0: 9940 dbbd b46d 413d 9410 093e e126 e1bd
000003e0: ebc8 253e b4c0 883d 1441 c63d f342 933d
000003f0: 29ef 5b3c dec0 d23d ee8b 5a3e b806 c03c
0.0350245 0.06812614 0.043381523 0.13002479 -0.10936771 0.08906773 0.084469534 0.09745898
-0.050558 0.17106459 0.11846499 0.12782851 0.15752095 0.009266765 0.07428092 0.15463229
0.10560758 0.22010212 0.051778723 0.0863967 0.20392527 0.14988735 0.08472128 -0.0350514
-0.061701275 0.05540972 0.11443869 0.03370288 0.00070266856 -0.0028688991 0.0011016808 -0.030283459
-0.052001737 -0.08764491 0.10186421 0.1256081 0.067453064 0.09661305 0.058620676 0.020706115
0.15333885 0.06379429 -0.022218963 0.12411989 0.1777073 0.13128723 0.05891851 -0.08211381
0.09174144 0.029943299 0.18149292 0.0024915219 0.21136518 -0.0029018943 0.120258175 0.22448534
0.044507515 0.18904102 0.11868763 0.21783377 0.049329977 -0.06324182 0.1434022 0.11645783
0.018327665 0.11530888 0.08900388 0.046241943 0.2978545 -0.018504158 -0.041737493 0.15832263
0.01957159 0.09666614 0.24630265 0.12527156 0.08226546 -0.092144884 0.10521359 0.12325475
0.07282827 0.020760546 0.105492756 -0.1031178 -0.0092997085 -0.11994127 0.12302867 0.09088602
0.047429405 0.20126508 0.16505273 0.08283742 0.08231186 -0.07110233 0.20579375 0.16798799
0.1889178 -0.005624736 0.15691394 0.20262563 0.07957253 0.0694791 0.05717985 0.13807382
0.054179493 -0.02719355 0.11826952 -0.003676028 -0.08776219 -0.049856823 0.14052173 0.07457495
0.14124376 -0.011353496 0.15408035 0.15387818 0.11225733 0.15091555 0.12881081 0.016296979
0.08243333 0.025062138 -0.09738468 0.11652879 0.12533064 -0.005152248 0.021178173 -0.042938083
0.038319636 0.03288109 0.17551059 -0.07003419 0.020438593 0.011873265 0.0064099045 0.116306424
-0.08883125 -0.012677545 -0.018089827 -0.0054859184 -0.06780789 -0.08662157 -0.15269649 -0.0057440167
-0.084429316 -0.018832607 0.093539804 -0.078844994 -0.04020457 0.15571935 -0.0024008194 -0.003841778
0.04291807 -0.033681087 -0.10521858 -0.09566987 -0.05791095 -0.028465472 0.06689174 0.10046485
-0.070479006 -0.05402514 -0.037300434 0.03803481 0.16743714 0.04034282 0.05670416 0.16923043
-0.12525629 0.0058066547 0.02379091 -0.18865968 0.014344826 -0.052755468 -0.048804574 -0.031761345
0.13268228 -0.07325717 0.049110297 -0.050932586 -0.078439444 0.035443563 -0.08849495 -0.008322329
-0.08210333 0.07318342 0.067772485 0.061128166 -0.075951494 0.23455885 -0.031527445 0.010196533
-0.060411625 -0.06558339 -0.04979325 0.10956409 -0.06266776 -0.03440561 -0.049766123 0.06463843
0.054351985 -0.0656433 0.092521414 -0.053995118 -0.074696414 0.00085723354 -0.09158027 -0.05094018
-0.02318469 -0.055026155 -0.06208623 -0.0029285369 -0.1086016 0.011255483 0.047013696 -0.07576645
0.16339731 -0.034588046 -0.10045584 0.24618658 -0.072161995 0.039269526 -0.020694453 -0.096760035
-0.019731972 -0.09972783 -0.094502844 0.016242824 0.026903028 0.005430164 -0.014066723 0.16154517
0.14377494 -0.08460189 -0.038497694 0.06535932 0.11306965 -0.076585904 -0.035862807 -0.066872746
0.045667164 -0.019222049 0.190706 0.07952032 -0.107056804 0.04722376 0.1338523 -0.10993744
0.16189925 0.0667738 0.096803814 0.07190504 0.013423719 0.10290693 0.21342441 0.023440704

layer_1.bias f4 [20]
00000000: c1bc 4d3e 04bc e73d 99ea 8c3e effe fc3d
00000010: bea8 943d 0ca4 ea3d 9af6 043e 7268 d13d
00000020: ca9e 203e 2891 333e 91ff 1e3e 548a 413e
00000030: 2076 e13d 1252 063e 0829 003e 7be9 3d3e
00000040: 5427 393e 0f7f b13d 351d 803e 02e9 dd3d
0.20091535 0.11315158 0.27522734 0.12353312 0.072587475 0.11457071 0.12984696 0.102249995
0.15685573 0.17535841 0.15527178 0.18900424 0.11008859 0.13117245 0.12515652 0.18546097
0.18081409 0.08666813 0.25022283 0.10835458

layer_2.weight f4 [20, 20]
00000000: 2b5b d23e f65a 1a3e d1d7 b3be 8dfa 103d
00000010: ec40 96bd de8e fd3d 2e71 e0bd 0c91 db3e
00000020: ef3f ec3d df0d 2a3e 84d4 1f3d fab7 2f3d
00000030: db57 913e 6260 fc3d 1cb6 08be 628b 163c
00000040: 54ed 433e 6c54 d9bc 073b 84bc 9e7b 01be
00000050: 4f1c db3d 934b 8b3e 72a8 e53d 2810 d1bd
00000060: 09e1 d23e f350 c23e d859 ccbd 822d 873e
00000070: a859 853e ae95 ee3c 1fea 3dbe 7be0 c23e
00000080: 6dbb 24bc 2aba 83be 2811 f63d 0141 ae3e
00000090: ef53 93be de84 9b3d 164e 853e 1056 923e
000000a0: d7dc cf3e 48b9 563e d196 6cbe 05a5 9b3e
000000b0: 31de 843e 24a0 e23d b70a 483e 9cf1 d63e
000000c0: 8be8 453e 9587 893e 7f9f 753e 2dbe b7bd
000000d0: 7000 2d3e 5a20 2f3e 628b b5be 7bb0 db3d
000000e0: aac7 afbd 2677 883e 2b05 a6be c4be 8ebe
000000f0: 836f 66be 7439 003c 1290 9cbe f7dc 643e
00000100: f3a9 65bc 0aa0 833e 2182 413e d80d b23d
00000110: d5ff 5d3d 0f2d 25be da73 8c3e 25b1 4d3e
00000120: 9ea0 0e3e 87c9 b03d fff1 c33e 7444 ba3e
00000130: 80c4 123d 44de bc3e b4ee 263c 81d4 a23d
00000140: d4b0 9fbd 6512 5dbe 2c6b b7be b4fd 163e
00000150: ee6c bb3d 49fd 633e 481b 573c 7d21 883e
00000160: 9e8a 9f3c a555 88be 1392 633e dc2c 613d
00000170: 60fa a63e b010 853e 33da 2abe f72f 643d
00000180: 2a7a ec3d dad5 9c3e bde4 90be b42a 23bc
00000190: 6ad2 22be e6f5 7dbd ced6 143e 5d0b 653e
000001a0: 7bce d33d 7460 d53e 56c7 d23e a317 c23d
000001b0: d55b fc3d 6eda 59be 9e56 433e cba1 b53e
000001c0: 14ba c93e 4b22 923e 1d53 7e3e 6df5 113e
000001d0: 01b8 b4bb 42f9 d63e 31a5 8e3e eff5 ac3e
000001e0: 191a 763e 3910 e13e b0e0 2c3e 96d9 013e
000001f0: 8f41 ef3d 6a60 00bd 3b85 babe 1e7d c43e
00000200: 325b 8d3e 9bf1 6c3e d051 b8be 4aae 8cbe
00000210: b60c 8fbe f7b6 a3be 3975 40bd 3365 31be
00000220: d79f 553e 6ca4 bbbc 1b3c 43be baf5 0fbe
00000230: 7aa1 00be 717f 283d 97ce cabd 0d9f 083e
00000240: d6d3 c93c 57bb d33e 2ffb ac3d 5f86 173e
00000250: 88c0 203e 9444 9dbe 16ae 1d3e 08e2 8d3d
00000260: 66f3 34bc ca2e e3bd 0431 883e c6a4 753e
00000270: 0d5b e53c 138d 673e a61c 913e 7b75 a33e
00000280: df8c 39be 54bb e5bd 4393 453e 45f4 e5bd
00000290: df21 863d 5da5 353e 09d7 8e3c b759 7bbe
000002a0: 5324 16bc d5c0 83be d598 2dbe 0023 923e
000002b0: ea99 63be 1b03 9cbd b0e3 353e 7b9c ac3e
000002c0: 2b5b acbe 3f8a 763d 38c4 063e 7af0 0b3d
000002d0: 4831 96bd a07e 313e fc47 41be 1f74 0abe
000002e0: 5347 37be 9ca3 18be da5e 043e 9674 b03d
000002f0: d134 13be f9ff 55be d879 fcbc cf6b e6bd
00000300: 264f 243e b932 a43d 025f 1fbe b6c8 14be
00000310: b498 a13d abe0 dcbd 5c63 f1bd fa0a c2bd
00000320: 9941 2b3c 637c 8abe 7b1b d93d 9230 be3e
00000330: 249f 9dbd 6919 573e 2f71 8e3e 6652 bd3e
00000340: 1cfb adbe 4731 25be cf8e a43e 6ded 07be
00000350: 3d3b 243e 9076 a73e 2aa7 a2be 077e 78bd
00000360: a71d db3e ce2c 5a3e a663 3cbe 3d7e 42be
00000370: b930 333e b438 6cbe be08 debc 3124 ce3e
00000380: d341 80be 8227 173e 3096 dc3e 4de6 353d
00000390: 205d 79be 649e 69be 5541 9c3e a543 853e
000003a0: 4711 d13e c78b bd3e 7edf 60be 6625 113d
000003b0: 4da0 0b3e 5731 ce3e 4b47 a33e 2d2e 14be
000003c0: 3446 4b3e d84a e73c 69aa 483e 3d09 01be
000003d0: f403 15be e7c1 acbe 2325 b03d 6805 44be
000003e0: fe0c 9bbe f62c 28be f77b e73d ed7f 56be
000003f0: 368e b5bd c7b3 c13e 8513 05be 3029 25bd
0.4108518 0.15073761 -0.35125592 0.035395194 -0.073366016 0.123807654 -0.10959087 0.428841
0.11535632 0.16606854 0.03902103 0.042900063 0.2838734 0.12323071 -0.13350719 0.009188505
0.19133502 -0.026529513 -0.016141428 -0.12644812 0.10698759 0.27206096 0.11213769 -0.1020816
0.41187313 0.37952384 -0.09978074 0.26401907 0.26044965 0.029124107 -0.18546341 0.3806189
-0.010054451 -0.2572797 0.12014991 0.3403397 -0.28774974 0.07593702 0.26036137 0.28581285
0.40598175 0.20969117 -0.23104407 0.30399337 0.2595077 0.11065701 0.19535337 0.41981208
0.1932699 0.26861253 0.23986624 -0.0897182 0.16894698 0.17102185 -0.35457903 0.1072702
-0.08583005 0.26653403 -0.32425818 -0.27879918 -0.22503476 0.007826198 -0.30578667 0.22349916
-0.01401757 0.25708038 0.18897296 0.08694047 0.05419906 -0.1613047 0.27432138 0.20087107
0.13928458 0.08632188 0.38270566 0.3638035 0.03583193 0.36888325 0.010188747 0.07950688
-0.07797399 -0.21589048 -0.35823953 0.14745218 0.09151636 0.2226459 0.013129063 0.2658805
0.019475278 -0.26627842 0.22223692 0.05497442 0.32612896 0.25989294 -0.16684799 0.055709805
0.115467384 0.30631906 -0.28299513 -0.009958912 -0.15900579 -0.062002085 0.14535066 0.22367616
0.103421174 0.4167515 0.41167706 0.094771646 0.12322203 -0.2127473 0.1907601 0.35475
0.3939978 0.28541788 0.24836393 0.14253779 -0.005515099 0.41987044 0.27860406 0.33781382
0.24033393 0.4395769 0.16882586 0.12680659 0.11682426 -0.031341948 -0.36429772 0.38376707
0.2760864 0.2313904 -0.35999918 -0.27476722 -0.27939385 -0.3197553 -0.046986792 -0.1732376
0.20861755 -0.02290555 -0.19065897 -0.14058581 -0.12561598 0.041137163 -0.09902685 0.13341923
0.024637144 0.41353866 0.08446347 0.14797352 0.15698445 -0.30716383 0.1539844 0.06927878
-0.011044359 -0.11092909 0.26599896 0.23988637 0.027997518 0.2261241 0.2834217 0.31925568
-0.18120144 -0.11217371 0.19294457 -0.11228231 0.06549429 0.17738862 0.017436521 -0.24545942
-0.009163934 -0.25733057 -0.16952832 0.28542328 -0.22226682 -0.0761778 0.17762637 0.33713135
-0.33663306 0.060190435 0.13160789 0.034164883 -0.073336184 0.1733346 -0.18875116 -0.13520859
-0.17898302 -0.14906162 0.12926808 0.08615987 -0.14375617 -0.20898427 -0.030819818 -0.112510316
0.16045818 0.08017487 -0.15563586 -0.1452969 0.07890454 -0.107850395 -0.117865294 -0.0947475
0.010452651 -0.27048025 0.106009446 0.3714643 -0.07696369 0.21005787 0.27820727 0.36976928
-0.33980644 -0.16132079 0.32140204 -0.13274164 0.16038223 0.32707644 -0.3176816 -0.060667064
0.4279606 0.21306154 -0.18397388 -0.18993469 0.17499055 -0.23068506 -0.027103778 0.40261987
-0.2505022 0.14761165 0.43083334 0.044409085 -0.2435193 -0.22814327 0.30518594 0.2602817
0.40833494 0.37020704 -0.21960256 0.035436057 0.13635369 0.40272018 0.3189033 -0.1447074
0.19850999 0.02823393 0.19596256 -0.1260118 -0.14552289 -0.33741686 0.08600833 -0.19142687
-0.3028335 -0.16423401 0.11302941 -0.20947237 -0.08865015 0.37832472 -0.12995727 -0.040322483

layer_2.bias f4 [20]
00000000: 36e4 643e acdc d4bc a424 1f3e b930 703d
00000010: 0c1f ca3c a677 1abe e517 3d3e 2652 93bd
00000020: 5007 403e f2db 23be 563e a03e eed4 d53d
00000030: c04a b13e 96c9 8f3c 6316 13be db39 173e
00000040: 2937 463e d2eb 9b3c 18c8 8d3d 5cd1 6a3e
0.2235268 -0.02598413 0.15541321 0.058640216 0.024673007 -0.15084705 0.18466146 -0.07193403
0.1875279 -0.16001871 0.3129756 0.10441004 0.34627342 0.017552178 -0.14364009 0.14768164
0.1935698 0.019033346 0.069229305 0.22931427

layer_3.weight f4 [4, 20]
00000000: 7061 6c3d 2a38 40be ec3a 3e3e 1c1b ba3e
00000010: a755 c53e 353e 7f3b 7d92 84be 2c61 233d
00000020: 7619 ecbd 5c4f 0fbe 087c 773e db84 a13e
00000030: 7ff5 adbe b66c 6f3c 94ce 493e 47a6 02bf
00000040: eba4 3e3e b005 b5be 80cc 30be 962b d4be
00000050: 36a4 a03d a297 ec3d 5d9f 453e 8fdf 8dbe
00000060: d767 55be cee0 e6be 6fa9 dd3e 039d d9be
00000070: 6ee2 f4bd 3259 1c3d 3472 08be 0fb5 9ebe
00000080: b855 67be e90d 833e d5e5 43be 5c93 b0bd
00000090: 5862 f9be 7baa 153e 1df5 adbe 8889 a23e
000000a0: 54c4 99be 5194 843e a0ed f8be 029b 5d3e
000000b0: 7c42 82be 9d74 133d 389d b7be 4dc5 503e
000000c0: f523 cd3e d9e8 ab3d afb9 c7be da03 f4bd
000000d0: b700 65be 8fd2 8abe 8a66 28be afc4 1f3e
000000e0: cdda d1be 77ff a33e 9b3d ce3e 6209 bb3d
000000f0: 89f6 1ebd afc1 e4be 1665 93bd d768 9abe
00000100: 1c3a 56be b703 6dbd 5f9a dbbd 0a1f fbbe
00000110: fdcb 60be 4638 9bbd 9eda 143e 6465 803e
00000120: c566 cd3e 22e0 e7be 3a61 debe a55b 9b3e
00000130: d5f4 923e 71e2 1abe 72f3 9abe a28e 7abe
0.05771011 -0.18771425 0.18577164 0.36348808 0.3854191 0.003894699 -0.25893012 0.039887592
-0.11528294 -0.13995117 0.24168408 0.31546673 -0.3397636 0.014613321 0.1970771 -0.5103497
0.18617599 -0.35355902 -0.1726551 -0.41439503 0.07843821 0.11552359 0.19299074 -0.27709624
-0.20840393 -0.45093387 0.4329333 -0.42502603 -0.119572505 0.038171 -0.13324815 -0.30997512
-0.22591293 0.2559655 -0.19130643 -0.086218566 -0.48707843 0.14615814 -0.3397607 0.31745553
-0.300326 0.25894406 -0.48618793 0.21641162 -0.2544135 0.035999883 -0.35862136 0.20387764
0.40066496 0.083940215 -0.39008853 -0.11914797 -0.22363554 -0.27113768 -0.16445366 0.15602373
-0.40987244 0.32030842 0.40281376 0.09132649 -0.038809333 -0.4467902 -0.07197015 -0.3015811
-0.20920604 -0.05786487 -0.10722803 -0.49047118 -0.21952815 -0.07579093 0.14536521 0.25077355
0.4011747 -0.45288187 -0.43433553 0.30343357 0.28702417 -0.15125443 -0.3026386 -0.24468473

layer_3.bias f4 [4]
00000000: 87bf 83be a50e 393e bb13 b53d a11e d6bd
-0.2573206 0.18071993 0.08841654 -0.10455061
